…
odel.add(Flatten())\n","\n","\n","model.add(Dense(1024,activation='relu'))\n","model.add(Dropout(0.5))\n","\n","model.add(Dense(1,activation='sigmoid'))\n","model.compile(optimizer='adam', loss='binary_crossentropy', metrics=['accuracy'])\n","print(model.summary())"],"execution_count":null,"outputs":[{"output_type":"stream","text":["Model: \"sequential\"\n","_________________________________________________________________\n","Layer (type)                 Output Shape              Param #   \n","=================================================================\n","conv2d (Conv2D)              (None, 224, 224, 32)      896       \n","_________________________________________________________________\n","max_pooling2d (MaxPooling2D) (None, 112, 112, 32)      0         \n","_________________________________________________________________\n","conv2d_1 (Conv2D)            (None, 112, 112, 64)      18496     \n","_________________________________________________________________\n","max_pooling2d_1 (MaxPooling2 (None, 56, 56, 64)        0         \n","_________________________________________________________________\n","conv2d_2 (Conv2D)            (None, 56, 56, 128)       73856     \n","_________________________________________________________________\n","max_pooling2d_2 (MaxPooling2 (None, 14, 14, 128)       0         \n","_________________________________________________________________\n","conv2d_3 (Conv2D)            (None, 14, 14, 256)       295168    \n","_________________________________________________________________\n","max_pooling2d_3 (MaxPooling2 (None, 7, 7, 256)         0         \n","_________________________________________________________________\n","conv2d_4 (Conv2D)            (None, 7, 7, 512)         1180160   \n","_________________________________________________________________\n","max_pooling2d_4 (MaxPooling2 (None, 3, 3, 512)         0         \n","_________________________________________________________________\n","conv2d_5 (Conv2D)            (None, 3, 3, 2084)        9605156   \n","_________________________________________________________________\n","max_pooling2d_5 (MaxPooling2 (None, 1, 1, 2084)        0         \n","_________________________________________________________________\n","flatten (Flatten)            (None, 2084)              0         \n","_________________________________________________________________\n","dense (Dense)                (None, 1024)              2135040   \n","_________________________________________________________________\n","dropout (Dropout)            (None, 1024)              0         \n","_________________________________________________________________\n","dense_1 (Dense)              (None, 1)                 1025      \n","=================================================================\n","Total params: 13,309,797\n","Trainable params: 13,309,797\n","Non-trainable params: 0\n","_________________________________________________________________\n","None\n"],"name":"stdout"}]},{"cell_type":"code","metadata":{"id":"5nGLMCuG9TLO","colab_type":"code","colab":{}},"source":["model.compile(optimizer=\"adam\", lo
…
